data.pth (torch, 5291 bytes, 6 tensors)

l1.weight f4 [8, 54]
-0.040598176 -0.026922837 -0.30190158 0.35902715 0.34689197 -0.35640764 -0.23973747 -0.27438086
-0.37870273 -0.29704383 0.37749875 0.5275558 0.28884703 0.34582967 0.02947341 0.40964562
0.49106395 -0.3135115 0.28560257 0.69592386 -0.16417336 0.3878661 0.5208894 0.61445457
0.32135755 0.52518773 0.47041056 0.072323404 0.22736554 -0.24626914 -0.12750475 0.35142067
-0.029842554 -0.38071588 0.10381206 0.4457275 0.21925308 -0.54117 -0.20951197 -0.33626056
-0.105475456 0.36259004 0.18964653 0.009165437 -0.1360563 0.062061485 -0.48441085 -0.14253923
0.44043538 0.46001107 0.40952545 0.36047113 -0.08055287 0.17802481 0.6383755 -0.2968412
0.45468685 0.21381499 0.22979781 0.55819464 0.24819684 0.47121826 0.13552932 0.29554614
0.020509506 0.06299224 0.0031907056 -0.039177716 -0.1683513 0.020797467 0.08115589 0.58066875
-0.21960594 0.28055647 0.32956973 -0.052172076 -0.0066165803 0.06594607 0.11267419 0.104003824
-0.21245109 -0.2414603 -0.16077793 -0.22696385 0.57701147 0.15449129 0.37476885 0.29491812
-0.07705521 -0.029022306 0.041479856 0.1883414 0.37418872 0.25511608 0.42273396 -0.36675522
-0.039646246 -0.28874812 0.29921776 -0.05534786 0.51747245 0.22258648 0.115451224 -0.29777104
0.10657174 -0.33302665 0.16632327 0.17310785 -0.20691213 -0.468278 0.62592334 -0.32285812
0.34724802 0.7599905 0.5325738 0.5454502 0.6574308 0.57215136 -0.36003703 -0.358677
0.43121713 -0.23595907 -0.20386896 -0.19281375 -0.38235503 0.90517837 0.18506975 -0.6954497
-0.05279483 -0.65518486 -0.6776155 -0.6728295 0.103797056 -0.31451616 0.4569821 -0.5891994
0.28896886 -0.56225973 0.47887096 -0.20526788 -0.167075 0.7238082 -0.15310784 -0.45974857
0.40155226 0.6607591 0.3731805 0.3807729 0.42319393 0.4218289 -0.21441168 -0.2757297
0.5761817 -0.10980915 -0.43629614 -0.20331177 0.011860188 0.38711616 -0.22691782 0.2584171
0.5768115 0.44699347 -0.24926032 -0.14166547 -0.20944622 0.48605716 0.21496883 0.24102433
-0.2531012 -0.18841882 -0.2686095 -0.21280019 0.3709736 0.32477814 0.013385764 0.33972046
-0.272585 0.3852418 0.3979315 0.29855302 0.21933013 0.54253644 -0.094785064 0.69562966
0.67125326 0.65757334 -0.17106195 0.4712922 0.37709746 -0.3289038 0.23047848 -0.13406004
0.13499318 0.36820057 0.01756407 -0.36237675 -0.11864274 0.47552222 0.30691937 -0.37472823
-0.020896308 -0.036527593 0.30500418 0.52311915 0.34994385 -0.032993466 0.061111808 -0.14805433
-0.5720813 -0.22806235 0.5664048 0.61363345 0.3751797 0.34067455 -0.09010887 0.018773176
0.63297266 -0.046141658 0.35926244 -0.23920423 0.050768238 -0.3915977 0.50837445 0.24533784
0.6637409 0.37873575 -0.25896943 0.43902227 0.52680975 0.5357386 -0.21629125 0.24397087
-0.13223912 -0.35710698 0.26516598 -0.39142805 0.28399777 -0.39119342 -0.3911893 -0.24360971
0.43196926 -0.27124086 0.46612522 -0.59595054 0.4218871 -0.5747791 -0.22681531 0.44446647
0.52166736 0.60651904 -0.08402313 0.35748363 0.6017922 0.58551216 0.31181884 0.44593564
00000000: 464a 26bd 488d dcbc d892 9abe 68d2 b73e
00000010: d39b b13e 107b b6be bd7d 75be a67b 8cbe
00000020: 53e5 c1be 2116 98be 8447 c13e e60d 073f
00000030: c2e3 933e 9610 b13e 3972 f13c 12bd d13e
00000040: bc6c fb3e 9484 a0be 803a 923e 1128 323f
00000050: 101d 28be 6396 c63e 0259 053f e54c 1d3f
00000060: fa88 a43e b472 063f a7d9 f03e 4b1e 943d
00000070: 83d2 683e fa2d 7cbe 9b90 02be 69ed b33e
00000080: 5f78 f4bc 31ed c2be 6b9b d43d 6536 e43e
00000090: e183 603e 1e8a 0abf 4e8a 56be 582a acbe
000000a0: 8403 d8bd 67a5 b93e b332 423e a12a 163c
000000b0: 5852 0bbe 2f34 7e3d b304 f8be cef5 11be
000000c0: bf80 e13e 9286 eb3e 52ad d13e ac8f b83e
000000d0: e7f8 a4bd 234c 363e 946c 233f 92fb 97be
000000e0: b7cc e83e 51f2 5a3e 1e50 6b3e d8e5 0e3f
000000f0: 5027 7e3e 8543 f13e 33c8 0a3e d351 973e
00000100: 8d03 a83c 1302 813d 281b 513b d078 20bd
00000110: 4864 2cbe 735f aa3c 0f35 a63d b5a6 143f
00000120: 61e0 60be 19a5 8f3e 5dbd a83e 63b2 55bd
00000130: e6cf d8bb bc0e 873d bac1 e63d f5ff d43d
00000140: c78c 59be 5e41 77be f8a2 24be 3669 68be
00000150: 06b7 133f f732 1e3e b4e1 bf3e 82ff 963e
00000160: 1fcf 9dbd 30c0 edbc c8e6 293d 91dc 403e
00000170: aa95 bf3e 939e 823e 9670 d83e 57c7 bbbe
00000180: 1a64 22bd cbd6 93be 1233 993e 70b4 62bd
00000190: 1379 043f b6ed 633e b171 ec3d 7275 98be
000001a0: 4942 da3d 7882 aabe a650 2a3e 2f43 313e
000001b0: c6e0 53be 22c2 efbe 833c 203f a94d a5be
000001c0: 7eca b13e bd8e 423f c256 083f a0a2 0b3f
000001d0: 634d 283f 8378 123f c656 b8be 83a4 b7be
000001e0: 7ec8 dc3e 419f 71be 06c3 50be f870 45be
000001f0: 0ac4 c3be c5b9 673f ed82 3d3e fe08 32bf
00000200: 643f 58bd 32ba 27bf 3678 2dbf 8e3e 2cbf
00000210: 8d93 d43d 4308 a1be 8ff9 e93e c6d5 16bf
00000220: baf3 933e 41f0 0fbf 932e f53e be31 52be
00000230: b515 2bbe 7f4b 393f 4dc8 1cbe 2a64 ebbe
00000240: 4298 cd3e 8227 293f 8411 bf3e aaf4 c23e
00000250: e0ac d83e f5f9 d73e bc8e 5bbe 712c 8dbe
00000260: a580 133f 9fe3 e0bd 3562 dfbe f630 50be
00000270: 3c51 423c 1734 c63e 255d 68be 3f4f 843e
00000280: eba9 133f 54dc e43e 193e 7fbe c110 11be
00000290: 1279 56be 7cdc f83e ca20 5c3e 15cf 763e
000002a0: 7b96 81be ddf0 40be 2f87 89be 4be8 59be
000002b0: 40f0 bd3e 5249 a63e f74f 5b3c d7ef ad3e
000002c0: 4390 8bbe 6a3e c53e adbd cb3e f1db 983e
000002d0: 1498 603e abe3 0a3f ac1e c2bd c914 323f
000002e0: 41d7 2b3f ba56 283f dd2a 2fbe 364d f13e
000002f0: eb12 c13e 1466 a8be 8d02 6c3e 0947 09be
00000300: a73b 0a3e c984 bc3e 86e2 8f3c 7289 b9be
00000310: f7fa f2bd a677 f33e 8924 9d3e 61dc bfbe
00000320: bc2e abbc f59d 15bd 8229 9c3e 23eb 053f
00000330: d72b b33e 2824 07bd 6050 7a3d 8e9b 17be
00000340: ec73 12bf 2d89 69be e8ff 103f 1517 1d3f
00000350: 8e17 c03e e56c ae3e 008b b8bd 34ca 993c
00000360: 7f0a 223f 09ff 3cbd 3ff1 b73e f4f1 74be
00000370: 5bf2 4f3d 7e7f c8be d424 023f d839 7b3e
00000380: ecea 293f a7e9 c13e a497 84be 87c7 e03e
00000390: 01dd 063f 2a26 093f 747b 5dbe 80d3 793e
000003a0: b169 07be bad6 b6be d6c3 873e 4269 c8be
000003b0: 2868 913e 814a c8be f749 c8be d374 79be
000003c0: 132b dd3e 15e0 8abe f7a7 ee3e 3790 18bf
000003d0: 9601 d83e b924 13bf 4642 68be 1c91 e33e
000003e0: fe8b 053f d544 1b3f 5214 acbd 1808 b73e
000003f0: 0e0f 1a3f 20e4 153f b8a6 9f3e ad51 e43e

l1.bias f4 [8]
0.54467225 0.58923525 0.74246716 0.57208204 0.3911327 0.8174358 0.5939873 0.7135534
00000000: a46f 0b3f 1fd8 163f 5412 3e3f f873 123f
00000010: 8c42 c83e 7943 513f 8d0f 183f 70ab 363f

l2.weight f4 [8, 8]
1.4190897 0.15081157 0.22616221 1.639506 -0.5486955 -0.24768344 0.09865753 -0.26844883
-0.1254804 0.84986115 -0.13763247 -0.41828275 1.1470208 1.0294194 1.1484237 -1.1246881
0.7449879 -0.5224831 -0.86606413 0.17527482 -0.6120507 1.4333508 -0.5964128 0.53207785
-0.34941348 -0.06852092 -0.15515767 0.16056691 0.19941452 0.14557761 -0.16364606 0.04825243
-0.45378983 1.317437 1.273875 -0.07860627 0.64102596 0.5322792 -0.7379234 -0.036235902
0.3656281 0.67501426 -0.36920473 0.3436641 -1.0464468 0.7525624 0.17473845 0.48816627
1.2741024 -0.2088948 -0.22992545 0.7083374 1.0667573 0.13833573 1.1197405 -0.57821536
0.5498227 -0.037372142 0.98859835 0.47900736 0.29983932 0.39519653 -0.91870403 1.3311623
00000000: bba4 b53f 596e 1a3e 1197 673e 55db d13f
00000010: 4f77 0cbf baa0 7dbe f60c ca3d 2072 89be
00000020: ef7d 00be 8090 593f 87ef 0cbe 2829 d6be
00000030: 94d1 923f 04c4 833f 8cff 923f c8f5 8fbf
00000040: 87b7 3e3f 74c1 05bf 61b6 5dbf 3e7b 333e
00000050: 5baf 1cbf 0a78 b73f 82ae 18bf 4136 083f
00000060: 53e6 b2be b254 8cbd a7e1 1ebe a76b 243e
00000070: 5233 4c3e 4c12 153e d592 27be 57a4 453d
00000080: 2457 e8be c7a1 a83f 560e a33f 53fc a0bd
00000090: 471a 243f 7343 083f 8ce8 3cbf 196c 14bd
000000a0: 9b33 bb3e bccd 2c3f 6708 bdbe bef4 af3e
000000b0: f8f1 85bf eea7 403f a3ee 323e eef0 f93e
000000c0: ca15 a33f 85e8 55be 9471 6bbe 9a55 353f
000000d0: 818b 883f e2a7 0d3e a853 8f3f ec05 14bf
000000e0: 2ec1 0c3f 8813 19bd c814 7d3f 7440 f53e
000000f0: 8a84 993e 3357 ca3e 3030 6bbf 8763 aa3f

l2.bias f4 [8]
0.5490897 0.5132402 0.6692321 -0.4094802 0.72123724 0.7401386 0.39816418 0.38409975
00000000: 2591 0c3f b663 033f cb52 2b3f 64a7 d1be
00000010: 01a3 383f b979 3d3f 2ddc cb3e b9a8 c43e

l3.weight f4 [7, 8]
0.36183637 0.37829906 -0.44044065 0.2752535 -1.833708 -0.09731237 0.6330663 -0.97674614
-1.2942377 -0.9482946 0.9695419 -0.20611799 -0.7560307 0.7028748 -1.205695 0.24312499
0.101853676 -1.4097012 -0.407547 0.057746552 0.5747084 0.47290367 -1.5232539 0.28208116
0.60647404 -0.44985533 0.59753585 -0.23481718 -0.7956382 0.6626823 0.20323907 -0.4313432
0.3243987 -0.9925455 -0.53516555 0.003731629 -0.60965276 -1.2713596 0.5997044 0.43353638
-0.9971896 0.1511647 -0.09423086 -0.026835661 0.7045485 -1.2874275 -0.50008225 0.011219138
-1.1009076 0.78904665 -0.5344708 0.21410146 -0.18535057 -0.36649755 0.45108026 -0.9491763
00000000: 9e42 b93e 6ab0 c13e 7081 e1be 07ee 8c3e
00000010: f2b6 eabf b54b c7bd a210 223f 090c 7abf
00000020: 95a9 a5bf 6fc3 72bf e633 783f 9810 53be
00000030: 3a8b 41bf 9aef 333f 3754 9abf c2f5 783e
00000040: a998 d03d 1771 b4bf 00aa d0be a687 6c3d
00000050: 1720 133f 6e20 f23e fcf9 c2bf f16c 903e
00000060: e241 1b3f 7053 e6be 1cf8 183f ea73 70be
00000070: f2ae 4bbf 8ca5 293f e71d 503e 04d9 dcbe
00000080: 9617 a63e 7617 7ebf 9c00 09bf 598e 743b
00000090: 3412 1cbf e9bb a2bf 3a86 193f 7bf8 dd3e
000000a0: d147 7fbf ebca 1a3e 1cfc c0bd 76d6 dbbc
000000b0: 4a5d 343f 6dca a4bf 6405 00bf 7ad0 373c
000000c0: 8aea 8cbf f6fe 493f 14d3 08bf 6a3d 5b3e
000000d0: 8acc 3dbe 91a5 bbbe fef3 e63e 38fd 72bf

l3.bias f4 [7]
-0.31411746 0.15901326 0.17657946 -0.1585041 -0.057703972 -0.13244033 0.3420832
00000000: 01d4 a0be 5fd4 223e 3fd1 343e e64e 22be
00000010: 005b 6cbd 709e 07be 8725 af3e
